DisCorNet_zero_init.pth (torch, 310719 bytes, 84 tensors)

module.nets.0.conv_D.weight f4 [16, 2, 3, 3]
00000000: 6eb7 b03b 92e5 8d3c f8db 8c3c 8718 24bd
00000010: 35ef 96bc 7b96 b9bb 8801 813b 464f 573d
00000020: 85a7 a93c d2a0 d03b 0d5b 1e3c e6f0 1cbc
00000030: 321a 5fbb 6fbb 97ba 3f77 8a3c 4189 3b3b
00000040: 3241 633c cf17 5cbc 0818 31bc 7189 8ebd
00000050: 464f 193d c329 003d 34db c6bc d3e1 003d
00000060: 046d dfbc d501 89bb 2a87 673c 12bf 69bc
00000070: 37d5 e13b 6f54 7c3a ab5f 9bbb 975e 593c
00000080: 8617 83bb 72e7 31ba 6245 fbba 12b1 b23a
00000090: c605 2a3d 4b72 ccbc fceb 843c b9c0 2bbd
000000a0: af22 c9bd 3d31 753d 1f7a 2d3d 2916 b3bc
000000b0: 11fa 6bbc f0af 46bc f7ec 9abb 93c1 b1bb
000000c0: c2d1 083a 2f1b 32bb a1f2 3fba 8fd0 4c3b
000000d0: 214c 393b ddf8 1e3b 406d c23c aa35 80bd
000000e0: 376a 09bd 1b1c aabc 5f60 b03d e72e 4b3d
000000f0: 7b22 b8bb edac e53c db89 54bc 4f00 4f3c
00000100: d47f 223b d937 723c fb07 b3bb a501 72bb
00000110: 408b f1bb 525f 3bbc 3bad b0bb 65ef db3b
00000120: da97 0f3d fa6c b83a 7305 413c 38dd 2b3c
00000130: b176 6fbd d2cb 1b3a 80e8 c43c 85f9 2d3c
00000140: 6375 a9bb ed39 0c3c 4243 0a3c cc0e 8c3b
00000150: fc9c 94bb 16bf 9bbc e7de 13bb c2b9 26bc
00000160: 26b6 c5bc 2352 883b 522b fcbc 5cab a0bc
00000170: 0515 253c fd7a 553b 91fd a03d a698 8dbc
00000180: be7e c9bc e606 af3a 7ec8 edbc 696f 003b
00000190: 390a 84bb 0ba2 463b b624 843b 8642 613a
000001a0: 083a 993b 7e61 c13b 4a55 2c3b 1d2b 38bc
000001b0: cf1a 013d 9bbb 2fbe 6570 d7bc 5986 e43c
000001c0: 16f2 963d 209f 473d affe c9bc 6ed2 973c
000001d0: cc51 02bd c271 e1bb e0a0 c43b 0e7d c5bc
000001e0: e141 a33c 89b4 64bc 00cc bbb7 24b5 98bc
000001f0: fba1 083c 920b 5f3c 3799 f73c 66e2 62be
00000200: 1394 953d 23c4 a83d 0b54 9c3e ebdc 23bd
00000210: 145d 7fbd bac0 82bc e9dc 00be d96f 973b
00000220: 26a3 e3bb f864 7dba b0df 80bb 1395 543c
00000230: efd8 953b 5235 173b 6bf1 3d3a a533 d935
00000240: bb3c 773c 9320 083e 27bd 8e3c b5ac bb3c
00000250: d6cf ad3b d7d6 1ebd 5abb e43c 7354 e0bd
00000260: f450 92bc 918f 8bbc fe4d 783c 37d6 f9b9
00000270: 9a25 033c 8997 bbbb 9405 673c 3252 92bb
00000280: f4ed 343c de41 d23b 7a92 c8bc 371e 073e
00000290: 0aaf 12bd e388 2bbc 3540 91bd b3c9 6f3c
000002a0: 7893 cc3d 8350 22bd 422a aebc dcbc 8c3b
000002b0: 741b 11bb 99a8 c7bb 8013 9aba 5d92 66bc
000002c0: 668f 433c 1e0a 55bc 2a18 d6bc c2d2 44bb
000002d0: f6a5 173c 0506 0f3e 4f5b 3e3d 8e43 cdb9
000002e0: 80aa 073d 8de9 1d3d 0619 b6bc 32a3 2fbe
000002f0: 2f6b 9abd 8c9a 973a 38cd 82bb 94de c7bb
00000300: c5c2 a03a 66ae 7ebc c9c7 573b f311 4c39
00000310: cb3a 3c3c a8f9 8fbc aa82 03bd 8c9f 4cbd
00000320: a258 a53c 2252 213c a048 b03d 733c b93d
00000330: ac60 80bc 7fd8 1dbd 6566 fcbb e2a8 8c3c
00000340: 02ef db3b 931d 41bb 4946 a63c ae5f bf3b
00000350: 0df4 043b c6c7 30bc b1d5 853c 26b1 2bbc
00000360: f144 55bd 8975 c6bd b8f3 7e3d 314a b33b
00000370: 0b9e 353d a0c6 473d 5b05 033d 3b00 983d
00000380: fd82 7cbd e2e1 03bb d0e7 893c 5330 353b
00000390: 3248 c5bc be5e 6a3c 5382 1cbc 12e1 adbb
000003a0: 4637 dc3b 451c 5f3b ef22 28bc b0d0 4dbd
000003b0: 3860 493b 7ad2 5d3c 7c1d f53b 75f8 2ebd
000003c0: 4ea6 843c b63f f43d 81da 1fbd 8165 d13b
000003d0: bcd3 2bbc 8a2b 0b3c fcf6 44bb 3035 0c3b
000003e0: 26db e93b caa4 80bc 5d09 403c 8422 95bc
000003f0: 77ef 13bd fb08 cfbc 2696 f13c 7fff 333c
0.0053929603 0.017321382 0.017194733 -0.040062454 -0.01842461 -0.0056636906 0.00393695 0.052565835
0.020709762 0.0063668275 0.009665263 -0.009578919 -0.0034042713 -0.0011576245 0.016902564 0.0028615745
0.013870524 -0.013433411 -0.010808952 -0.069598086 0.037429117 0.031289827 -0.024274446 0.031465363
-0.027273662 -0.0041811266 0.014131347 -0.014266746 0.0068918723 0.00096256187 -0.004741629 0.013267181
-0.004000607 -0.0006786502 -0.0019170458 0.0013633093 0.041509412 -0.024956843 0.016225807 -0.04193184
-0.098210685 0.05986141 0.042352792 -0.021861153 -0.014402882 -0.012126908 -0.0047279554 -0.005424687
0.00052192446 -0.0027176847 -0.00073222263 0.003125224 0.0028274136 0.002425722 0.023733735 -0.062602356
-0.03354856 -0.020765355 0.08612131 0.049605276 -0.005619345 0.028036559 -0.01297232 0.012634351
0.002479543 0.014783823 -0.005463598 -0.003692725 -0.007371336 -0.0114363 -0.0053917444 0.0067118877
0.035056926 0.0014070563 0.011781084 0.010489754 -0.058462802 0.00059431524 0.024036646 0.010618572
-0.0051714643 0.008558732 0.008438887 0.004274225 -0.0045353156 -0.019012015 -0.002256328 -0.010176124
-0.024134707 0.004160182 -0.030782375 -0.01961296 0.010075812 0.0032574527 0.07860864 -0.017284703
-0.024596568 0.0013353496 -0.029026266 0.0019597656 -0.004029539 0.0030308987 0.0040326966 0.00085929816
0.0046761073 0.0059015146 0.0026295953 -0.011240748 0.031519707 -0.1716141 -0.026298711 0.027896093
0.07370393 0.048735738 -0.024657575 0.018532958 -0.03181629 -0.006880016 0.006000623 -0.024107482
0.019928874 -0.013959059 -2.2387132e-05 -0.018641062 0.0083394 0.013613598 0.030224426 -0.22156677
0.073036335 0.08240535 0.3053287 -0.040005606 -0.062344626 -0.01596104 -0.1258427 0.0046214876
-0.006946939 -0.00096662296 -0.0039329156 0.012974995 0.0045729796 0.0023072553 0.0007245752 1.618279e-06
0.015090163 0.13293676 0.01742418 0.022909502 0.005304317 -0.038779106 0.027921367 -0.109536074
-0.017860867 -0.017036231 0.015155314 -0.00047652583 0.00800457 -0.0057248515 0.014100451 -0.004465365
0.011043061 0.0064165434 -0.024483908 0.1319512 -0.03581146 -0.010469648 -0.07092325 0.014635491
0.09989065 -0.039627563 -0.021260384 0.0042949747 -0.0022141607 -0.0060930965 -0.0011755079 -0.014072982
0.011936044 -0.0130029 -0.02613457 -0.0030032848 0.009255877 0.1396714 0.046473797 -0.0003915098
0.033121586 0.03855281 -0.022228729 -0.17152098 -0.07539975 0.0011566444 -0.003991749 -0.0060995314
0.0012265077 -0.0155445095 0.0032925478 0.00019461643 0.011488627 -0.0175751 -0.032107033 -0.049956843
0.020183865 0.009846242 0.08607602 0.09044733 -0.015671097 -0.038536545 -0.007702636 0.017170373
0.0067118416 -0.002946709 0.020297186 0.0058402633 0.0020287067 -0.010789817 0.016337248 -0.010479247
-0.0520677 -0.09690387 0.062244147 0.005471491 0.044340175 0.048773408 0.03198753 0.07421919
-0.061648358 -0.002012365 0.01683417 0.0027647212 -0.024082277 0.014304815 -0.009552556 -0.0053063715
0.0067204563 0.003404395 -0.010262235 -0.050247848 0.0030727517 0.013538951 0.0074803215 -0.042717416
0.016192582 0.119262144 -0.03902674 0.006390274 -0.010487493 0.008494267 -0.003005444 0.0021394007
0.00713672 -0.015703578 0.011720982 -0.018204935 -0.036117043 -0.025272837 0.029490542 0.010986208

module.nets.0.conv_D.bias f4 [16]
00000000: 18ff 6abc 7985 ce3b fece 4e3c b11a 4fbc
00000010: 4c5e 06bc 98da e33b bf34 503c 033e 17bc
00000020: 04eb 79bc 2fa8 a7bb 2d36 26bc f2ab 84bc
00000030: 0fff 6bbc 02d7 2cbc 1363 253c aca6 35bc
-0.014343046 0.0063025323 0.012622593 -0.012640641 -0.008201193 0.0069535486 0.012707888 -0.009231093
-0.015253786 -0.0051164846 -0.010144752 -0.016195271 -0.014404072 -0.010549309 0.010094422 -0.011087101

module.nets.0.H_for.conv1.weight f4 [16, 16, 3, 3]
00000000: 430e 353d 6212 133d 3d02 adbc ad68 b83d
00000010: bdf6 0c3e 1ac2 083d 5f88 3e3e 094e 083e
00000020: a63b 1cbd 6f4b 0d3d c718 3f3c 73b0 09bd
00000030: dd97 aa3c 8045 4bbd d36e c5bd 6f5b 503d
00000040: cb0e a6bc b128 90bc d0d9 873d 8f38 d3bd
00000050: 5730 b6bd baa9 49bc c230 87bd 1790 c4bc
00000060: fb1c df3c fdc3 b6bd 7428 1dbd ca73 ab3d
00000070: 0b39 b53d 9a52 c53c 65cd c43c 90a1 f73c
00000080: 8c27 b93c 29d3 c73d d907 dd3d 1fa6 f53c
00000090: be59 053d 9394 85bd afc5 4e3c 57d1 9c3c
000000a0: 2b51 903c 16eb 043e 8c90 b1bc 6384 88bc
000000b0: 8e33 e03d a6fa 2abd 51d0 8c3d 7365 18bc
000000c0: a6b5 cabc 163f 1fbd 2da4 bbbd 48b4 afbd
000000d0: ffee 0c3d 726c b0bc 331a 973d 59d6 0b3c
000000e0: c988 e1bc 5fec 5abd 1a68 e9bd 7ad9 97bd
000000f0: 2ff9 40bc e2a3 0b3c 6263 0ebd 1fb5 e4bb
00000100: eee4 053e 9c0b 473d 7d66 18bd f7f3 87bd
00000110: 10d9 583c ee64 37be 9620 c03d a37c 023e
00000120: d7a8 3fbd 7121 c5bc 7a7d 403d ec83 0b3d
00000130: d842 023d 24ae 903d 1488 76bd 858a 02bd
00000140: a85a 8d3d 1ff0 b6bc 62bf 56bd 0e15 2e3d
00000150: e4f3 f63b 4938 853d b521 e73d e134 44bd
00000160: 26d1 5bbb 69a6 b73d fd56 2bbd bdc8 0abd
00000170: 2e27 19bd 5006 bcbb 5f7b 4ebc f91d 4fbc
00000180: 3340 85bd eec3 b5bd 63cd 22bd 6818 3e3e
00000190: 42ce 333e 61c7 7d3d 2bb1 ab3d 2ea8 d23b
000001a0: 4ebe a2bd 95f4 f43d 435f ee3d 7b52 b3bd
000001b0: ca28 eb3d 8307 eb3d a338 7c3d 8ee7 2d3d
000001c0: 0f05 313d 0c46 153d b32f 163d 4545 173e
000001d0: c15b db3d fa43 363d 5c88 6c3d 0f10 7f3d
000001e0: ca2c 3bbd 5ca4 f33c 4153 f53c af8b 2dbd
000001f0: ecfa d93d 6da8 c53d c7a5 c7bb 6741 ae3c
00000200: 94a2 afbc 261c f0bc 68c1 8fbd 5f85 aebd
00000210: 1729 21bd eb16 41bd 1e40 d1bc 2aec 89bd
00000220: 35c7 43bc eed2 7c3b 6be9 583d 46eb 313d
00000230: a225 2d3d 110d e6bb 80d6 e6bc 90bb 613c
00000240: 1546 e13c 3659 a63c 25dc b6bc 1ddc 943c
00000250: 8aaf 643d 4eb8 733c e804 203d 9af1 d33c
00000260: 9b39 9e3b 2745 003d dd79 e23c 6fb0 4ebd
00000270: 7e86 273c 3f70 653c 68c4 99bc e895 8d3c
00000280: 53ca 3dbd 14d9 0b3d 9d4e 74bd 5487 35bd
00000290: c752 53bd 5a72 403d b917 2dbd e203 64bb
000002a0: 58cf 3f3d ee0e 44bd 320a b9bc 9e04 333d
000002b0: 37b1 af3d 0f82 cf3c e189 543d 635c b93d
000002c0: ab22 81bd db8e b23c 7bea d43c c5f8 f93c
000002d0: bea1 99bd 3150 06bb d16e 0bbd ba49 5b3c
000002e0: 2613 683b 7aa9 7b3c a33f 833d d7c5 06bc
000002f0: d453 23bb fc2d 673d 4bef 953b 1fef 353d
00000300: a774 2bbd 3705 8f3c 93d8 2ebd 7299 10bd
00000310: b2b4 9e3c 04e9 03bd 009d 1c3d 2e97 d83d
00000320: f8cd 7b3d a4f0 1cbd 6317 1c3d fa0b 0bbd
00000330: d34e 01bc 5ba7 48bd 67e5 993d 59f2 163c
00000340: 46b3 e73d 05bc 6a3c b046 35be 7e9a 4c3e
00000350: 6887 e7bd f389 8fbc 6c15 7e3b 7d5f 463b
00000360: 0620 75bd 286c 02be 5969 69bd f33b 16bd
00000370: f61c d8bd b0ca e7bb 7958 0dbd 9bc7 7c3d
00000380: c371 89bd c264 d6bc 8914 86bd 82bf 98b8
00000390: 1d7d 0c3d c6ce ffbd 4759 993d ae0c 1f3d
000003a0: ac38 863d c16b 08bd 97fe bfbd 9464 fdbd
000003b0: b550 56bd 875d 76bd c8c7 1dbe 6beb c6bd
000003c0: c8de 49bd 296b d0bb 5901 fbbd c50e 573d
000003d0: 5705 fa3c 8d03 533c 91bd 283d cbec bd3a
000003e0: 3789 10bd f0cd 703d e5c8 8c3b 9bf7 8d3b
000003f0: 6c14 663c 775e 0b3e 3992 b43c ecf7 49bb
0.044203054 0.035906203 -0.021119231 0.0900434 0.13765998 0.033388235 0.18606709 0.13311018
-0.038142823 0.034495767 0.011663622 -0.03361554 0.020824367 -0.049626827 -0.09640279 0.050868448
-0.020270726 -0.017597528 0.06633341 -0.10313522 -0.08895939 -0.012308532 -0.06601097 -0.023994489
0.027235499 -0.089241005 -0.038368657 0.083716944 0.08848771 0.024087239 0.024023721 0.030228406
0.022601865 0.097570725 0.107925124 0.02998644 0.032556288 -0.06522479 0.012620374 0.01914279
0.017616829 0.12980303 -0.02167537 -0.01666469 0.10947333 -0.041742943 0.06875671 -0.009301531
-0.02474482 -0.038878523 -0.091621734 -0.08579308 0.034407612 -0.021536086 0.07378044 0.008534991
-0.027531045 -0.053448077 -0.11396809 -0.07414527 -0.01177816 0.008522959 -0.034762748 -0.006979599
0.13075611 0.048595056 -0.037207115 -0.066383295 0.0132353455 -0.17909595 0.09381215 0.12742858
-0.046791878 -0.024063798 0.046994664 0.034061357 0.03180203 0.07064465 -0.060188368 -0.031870384
0.06902057 -0.022331296 -0.05242861 0.042500548 0.0075363982 0.06504876 0.11285726 -0.04790199
-0.003354141 0.08967287 -0.041831005 -0.033882845 -0.03739088 -0.005738057 -0.012602656 -0.012641423
-0.06506386 -0.08875261 -0.039746653 0.18563998 0.1755915 0.06195772 0.083834015 0.00642874
-0.07946454 0.11960713 0.116392635 -0.08755966 0.11482389 0.11476042 0.06157745 0.042457156
0.043217715 0.036443755 0.036666583 0.14772518 0.1071086 0.04449842 0.05774723 0.062271174
-0.04569701 0.029741459 0.029946925 -0.04236954 0.10643563 0.09651265 -0.0060927602 0.02127142
-0.021439828 -0.029310297 -0.07019311 -0.08521532 -0.039345827 -0.047140997 -0.025543269 -0.06734498
-0.01194935 0.0038577872 0.05295698 0.043437265 0.042272218 -0.0070206006 -0.028178453 0.013777629
0.027499238 0.020306211 -0.02232177 0.018171364 0.05583147 0.014875485 0.03906718 0.02587204
0.0048286445 0.03131595 0.027646 -0.05046123 0.0102249365 0.014003812 -0.018770412 0.017283395
-0.04633553 0.03414257 -0.059645284 -0.044318512 -0.051592615 0.046984054 -0.04225895 -0.0034792353
0.046828598 -0.0478658 -0.02258787 0.043705575 0.08578723 0.025330571 0.051889304 0.090508245
-0.063054405 0.021796634 0.025990715 0.03051413 -0.07501553 -0.0020494575 -0.03404123 0.013384277
0.0035411804 0.015360231 0.06408622 -0.00822588 -0.0024921792 0.05644034 0.004575645 0.044417497
-0.041859295 0.017458541 -0.04268701 -0.035302587 0.019373272 -0.032204643 0.038235664 0.1057571
0.061475724 -0.03831543 0.03810824 -0.03394697 -0.007892328 -0.048987728 0.07514458 0.009213054
0.113134906 0.014327054 -0.17702746 0.19980809 -0.113051236 -0.017521834 0.0038770093 0.0030269318
-0.059844993 -0.12736571 -0.056985233 -0.036678266 -0.10552399 -0.007073723 -0.034508202 0.061713796
-0.067111515 -0.026171092 -0.065468855 -7.283596e-05 0.034299005 -0.12490611 0.074877314 0.03883045
0.06553778 -0.033305887 -0.09374731 -0.123726994 -0.052323062 -0.06014779 -0.15408242 -0.09712871
-0.049284726 -0.0063604307 -0.122561164 0.05250432 0.030520124 0.012879265 0.04119641 0.0014490125
-0.03528711 0.058790147 0.0042964094 0.0043324954 0.014042955 0.13610254 0.02204238 -0.003081794

module.nets.0.H_for.conv1.bias f4 [16]
00000000: 16c8 c1bb 8004 7b3b c7e0 37bd e42e 3e3c
00000010: 813e 953c fbd8 34bc b7b6 1ebc 570b d23c
00000020: 33ed 673c f857 3dbc 7cc1 15bc 2b93 ac3c
00000030: b6a4 25bb d068 a9bc 066d 12bd bfcd 1dbc
-0.0059137447 0.0038302243 -0.0448921 0.011607859 0.01821828 -0.01103806 -0.009687117 0.025640173
0.014155674 -0.011556618 -0.009140369 0.021066269 -0.0025275177 -0.020679861 -0.035748504 -0.009631573

module.nets.0.H_for.conv2.weight f4 [16, 16, 3, 3]
00000000: aa30 85bd 0f52 993d 44c6 0fbc 2c93 8e3d
00000010: 75f0 073d 38ad 8dbd 1a00 293c ca7c e5bc
00000020: 57e4 15bd 8574 13bc a896 01bd fafd a33c
00000030: 3bec aabd 850f 3dbc df65 a63d 24be cfbd
00000040: 5314 923c fe83 d13d d350 f8bc 0cac 073d
00000050: 859c 953d 3496 debd b07f 973d 3502 44bd
00000060: ceb3 dfbc 1998 343d e568 a03b 8141 c83b
00000070: 4cf2 a23d f42e d73c 9077 693d b3f5 293e
00000080: d41f 53bd 7981 a83d f72e 11bd 74cc 72bd
00000090: 1ecf dfbd 2610 6a3d bd67 9e3d 1faf 2cbd
000000a0: a4e1 203e b6ee d03c 3af5 2d3d 0fe9 383d
000000b0: 29a2 eebc a8dd 45bc 0ec5 ce3a b004 10be
000000c0: e861 cc3b 79e2 053b 30a6 c1bd 9a2b 5cbc
000000d0: 128f 31bd 15f6 b23b 30c4 213e 9ae5 913d
000000e0: 5d4d d8bb ba0e 96bd 39c1 e53c 0327 a4bd
000000f0: bc5f f43c 3bbc 18bd e449 9abd 0520 a83d
00000100: 863f a83b e358 c0bd 14dc c83c 4267 cebc
00000110: 021b d8bd 9142 4bbd 093b b6bd 33b6 21bc
00000120: 1d91 913c bdfb 80bd a515 013d c002 903c
00000130: 48cd 32bc 78e6 b83d 9c13 32bd 8935 0e3d
00000140: 344e d33d bd99 6f3b 9e71 ec39 d94d 873a
00000150: de5b d0bb 7074 483b cd8b 40bc fbb9 eb3b
00000160: 2c6a 99bc 66e7 a6bb f941 11bd 9042 f7bd
00000170: a4c1 f0bd 2919 f03c 6fed 01bc 7e7e 10bc
00000180: b07f 813d b644 6a3d b78f 8c3d 6b75 0cbd
00000190: 21f7 763d 827d 94bc d493 27bd c5a7 e63d
000001a0: 7fc4 33bd dde4 d03c 7f7d 6fbc b420 61bd
000001b0: 71c6 323d 8e48 aabb dfbf f0bc 9250 0c3b
000001c0: 4736 363d 6996 893c 8edb b7bd a653 f8bb
000001d0: 959d 023e 6550 ac3d 7982 933d 387c 17be
000001e0: c7c2 f9bd cea8 a23d 50aa b03d b8c9 2cbd
000001f0: eb86 3a3d 284b 893a 6a39 44be dac8 07bd
00000200: 4867 763c bfb7 e23c 3cc7 1ebe 432b 40be
00000210: 6fc5 5b3d 9a09 abbd c0b8 3bbe 2d0f 3c3e
00000220: dd5f ee3c 7470 6abd a749 8c3d 2925 45bd
00000230: 86c2 4abd 3867 96bc 7d00 253d e517 b53d
00000240: 210a 43be 5d0c 26be 109c 94bd a811 e8bc
00000250: 5ae3 84bd 4be3 abbb 9bc9 d93c a80f 04bd
00000260: 0fdb 8a3d f59c b13d f376 173e c181 0b3e
00000270: c9cf b83d c5e0 ad3d 4fdc 163e 8df7 573e
00000280: 4cb9 113e 386e 323e e091 f73b 26f4 a5bd
00000290: b474 8c3d 200d df3d c7bb 3c3d bf07 85bd
000002a0: 2c2e 913d 5295 c33d 053c 6dbd c209 58bc
000002b0: d5fa ee3c d706 4d3d acc5 a43b d702 d5bd
000002c0: ee8e be3c 3c89 a43d 45b3 333d 33d6 6dbc
000002d0: 967b 1dbb 5426 ca3c 363e ca3c 8f66 de3c
000002e0: b94f 01be d163 16bc 53d3 073e 3aca 453e
000002f0: a0c9 5a3d af5e 773e 4abd 233d c797 1e3e
00000300: ffb1 093d bc28 65bd 379f 1a3e b9c0 dfbc
00000310: 9e0a 72bd f556 cb3d 7eed 3cbe 7489 a8bd
00000320: 5901 f7bd 13bc 10be fa17 85bd 259e 783c
00000330: 050b 103d a2d9 963d 1acf f43d 9a3d 5fbb
00000340: 8fb3 18bc de75 31bd f1ef 5ebc d75c 473d
00000350: 22af 8bbc 218c 813d 4721 33bd dc41 fd3c
00000360: 8d4e 623d 738a 403d f242 1e3d 186d 86bb
00000370: 34c2 653d 0e0f 1a3d 856e 513c 9e7a 9a3c
00000380: 3ca6 333c b44e 663c c2b9 3cbc 18f6 a43b
00000390: d703 5d3c 2c48 fb3a 577b 973a c220 763c
000003a0: f6a7 2bbb 9c03 8b3b f64e 2abd e252 fcbd
000003b0: 2971 3ebd 9517 14bd 0905 abbd 06e5 ccbd
000003c0: 348b 263d c5d9 f5bd 7a37 23bd 8cad 78b9
000003d0: 9455 86bc 61de 823d 92db 073c 7dc5 c1bd
000003e0: af5c 843d ae2b 653c 3584 263e f14b 403c
000003f0: 3387 bdbc ad68 373d e7e5 b83d b6c3 d83c
-0.065034226 0.074863546 -0.008775298 0.069616646 0.033188302 -0.069178045 0.010314966 -0.028013606
-0.036594715 -0.008999948 -0.031637818 0.020018566 -0.08345839 -0.011539345 0.08124899 -0.10143688
0.017831957 0.10230254 -0.030311977 0.03312306 0.07305244 -0.10868493 0.07397401 -0.047853667
-0.027307417 0.044090364 0.004895317 0.0061113243 0.07956371 0.026267506 0.05699879 0.16597633
-0.051544026 0.0822782 -0.03544518 -0.059277013 -0.10928176 0.057144307 0.0773463 -0.042159196
0.15711075 0.025504451 0.042470194 0.045144137 -0.029130058 -0.012076773 0.001577528 -0.14064288
0.0062372573 0.0020429178 -0.09455526 -0.01343813 -0.043349333 0.005461464 0.15797496 0.07123871
-0.0066010193 -0.073270276 0.028046237 -0.080152534 0.029830806 -0.037288886 -0.07533625 0.08209232
0.0051345257 -0.09391954 0.024519004 -0.025195722 -0.10552026 -0.04962403 -0.08897979 -0.0098701
0.01776939 -0.06298015 0.031514782 0.017579436 -0.010913201 0.090283334 -0.043475732 0.034719024
0.103176504 0.003656014 0.0004509808 0.0010322883 -0.0063586077 0.003058698 -0.011752081 0.0071938015
-0.018727385 -0.005093503 -0.035463307 -0.12073243 -0.11755684 0.029308872 -0.007930144 -0.008819221
0.063231826 0.057194434 0.06863349 -0.034291666 0.060294274 -0.018126253 -0.040912464 0.11262468
-0.043888565 0.025499756 -0.014617323 -0.05496283 0.04364628 -0.0051966375 -0.029388366 0.0021410328
0.044485357 0.016795354 -0.089774236 -0.007578331 0.12755425 0.084137715 0.0720262 -0.1479348
-0.12195354 0.07942353 0.086262345 -0.04218456 0.045538824 0.0010474669 -0.19162527 -0.03315053
0.015039273 0.027675508 -0.1550569 -0.18766503 0.053655084 -0.08351441 -0.18332195 0.18365164
0.029098446 -0.05723615 0.068499856 -0.04813114 -0.04950192 -0.018359765 0.04028367 0.08842448
-0.19046833 -0.16215654 -0.07256329 -0.028328732 -0.06488676 -0.0052456013 0.02658539 -0.032241493
0.06780063 0.08672515 0.1479147 0.13623716 0.09024007 0.08490137 0.14732479 0.21090527
0.14230841 0.17424858 0.0075552315 -0.08103208 0.06858197 0.10891175 0.046077516 -0.06495618
0.07088885 0.09549965 -0.057918567 -0.01318592 0.02917234 0.05005535 0.005028447 -0.10400932
0.023261514 0.08033988 0.043872137 -0.014516401 -0.0024029962 0.02467648 0.024687868 0.027148513
-0.12628068 -0.0091790715 0.13264208 0.19315425 0.05341494 0.24157213 0.039975442 0.15487586
0.033617016 -0.05594705 0.15099798 -0.027313577 -0.059092157 0.09928695 -0.18449971 -0.08229342
-0.12060804 -0.14134245 -0.06498714 0.015174423 0.03516676 0.07365729 0.11953564 -0.0034063817
-0.009320154 -0.043325298 -0.013607011 0.048672523 -0.017051283 0.063255556 -0.043732908 0.030915193
0.055250693 0.047007035 0.038638063 -0.0041023605 0.05609341 0.037612014 0.012782698 0.018857297
0.010964926 0.01405685 -0.0115188975 0.0050342195 0.013489685 0.0019171289 0.0011557144 0.0150224585
-0.0026192642 0.0042423736 -0.04157921 -0.12320496 -0.046494637 -0.036155302 -0.0835057 -0.1000462
0.0406601 -0.12004427 -0.03984783 -0.00023715774 -0.016398229 0.06390072 0.008292096 -0.09461496
0.064629905 0.013987465 0.1626137 0.011736856 -0.023135757 0.04477756 0.090282254 0.02646051

module.nets.0.H_for.conv2.bias f4 [16]
00000000: 94eb ae3c a989 43bd c32b 373c 7b1c 563c
00000010: 1fc3 573c 3bce 3e3d c169 dcbc 06cf 213c
00000020: e8d3 e93c e486 06bc 9c48 01bc 409e 873c
00000030: 9ff8 d23c 0040 82bc c7bf a53b cc16 ce3c
0.021352567 -0.047738705 0.011179867 0.013068314 0.013169079 0.046583395 -0.026905896 0.009876018
0.028543428 -0.008210871 -0.007890847 0.016554952 0.025753317 -0.015899658 0.005058262 0.025157355

module.nets.0.H_back.conv1.weight f4 [16, 16, 3, 3]
00000000: 3a84 ad3d 300b 6abc bb0b 4638 a1da febc
00000010: 33e2 6cbd 4a29 a1bd 0f6a 13bc a20c 2e3c
00000020: d41f ecbd ad50 b4bd a3e0 bbbd 18c5 8abd
00000030: f444 8b3d 9a64 a33d fc23 663d ba89 413d
00000040: 3ff2 863d 7fe3 253d d012 f7bc 90c0 103d
00000050: a42f c03d a10b 883d 4a65 493d 5ad3 d83d
00000060: 88f6 6d3d e6cd c73d 9c6a 023c 4164 4ebd
00000070: 745e 98bb 1575 ffbc 9b21 50bd 2ffc 9abd
00000080: e42b 49bd 55f7 b0bd c963 4d3c 0764 82bd
00000090: fcb2 bdbc 5eee 2dbe 803e 14bd 9b5b 4ebd
000000a0: 12d0 833d d525 80bd 0bc3 8a3d 35b9 243e
000000b0: 0a0a 023e b8fc 8ebd 9a0c 8f3d 2b4a 023d
000000c0: 3f27 233e 0530 1cbc 18fc 56bd cbce 633c
000000d0: e7dc 0e3d 2ae5 76bd 5f96 caba d463 f23c
000000e0: d97e a73d 9b21 013e cad4 f73d efcc c13d
000000f0: 69ee ac3d 630b 023d 7f2d 003e 12cf 49be
00000100: a70f 02bd fd20 b5bc b8ef ee3a 19b9 61be
00000110: 627e 3ebc 990d 27be facb 38bd 5ce0 94be
00000120: 9911 10bd a7b2 46bc cde2 553d e9cf 7ebd
00000130: 5834 19bd 10ec 2e3d 5530 0bbd 2ec1 5c3d
00000140: 7253 c1bd b595 e03d 64da 3e3d 88e2 9dbd
00000150: a50c ef3b 8fa1 e1bd 3049 b1bd 4b73 c0bd
00000160: a64e 85bd 4ba3 043e 9d5e 853d f459 ae3d
00000170: 5865 50bd fd79 3fbd 72b4 43bd c0e8 62b9
00000180: 874c 0ebd f767 1ebe 4e8f 6e3d 007a 413d
00000190: ebb4 033e 11b9 1139 949e 203d bfb7 9a3d
000001a0: 7f3e 3c3d 8da0 44bd 566b 02be 4274 5b3c
000001b0: d171 04be e002 b13d 727e 44bc bd73 293d
000001c0: e975 8dbd 9186 1bbd f907 ccbb 52cf aebd
000001d0: 8a61 dcbd 8812 0bbe e44f 3abe ca21 0ebe
000001e0: 536f b3bd 14e7 9fbd e2c3 52bd e716 edbd
000001f0: d79b 233e 4fcf 7abd f11e 4fbe 2595 1ebe
00000200: a07c 37be 29a8 20be 54ea debd f312 f3bd
00000210: 895f ccbd da1f f8bc 6d2f b9bd da57 123d
00000220: 950c 60bb e932 053d 4214 3fbd f8a2 abbd
00000230: bf57 30bd 64dc 3dbc f244 c63d 6f20 9d3b
00000240: 1ce2 8cbc f586 0dbb e7ed 303b 029f a2bb
00000250: 4ac3 56bc 40f8 79bc 121d 8e3b eecb 8f3c
00000260: 942e 6b3b 8821 963b 2c62 03bc cc55 b6bc
00000270: b20c 813c a97f 68bc 47f7 173c b791 253c
00000280: c243 c7bb 08dc 5dbc 1223 59bb 3d53 523b
00000290: 47c4 353c 442e 2a3c a478 343c 385f b43b
000002a0: 74eb 973b 8742 483c 73ee c6bb 95c7 753c
000002b0: 49ac 7637 661a 79bc 20ac 023c cf04 7f3c
000002c0: 6fd4 a9bb 55e2 73bc 9e17 103b 4bec 0cbc
000002d0: b8e9 b73b 4af8 413c 2e3e afbc 0f3c e0bc
000002e0: 1664 41b8 515c b9bb 4d57 06bc 81d5 323c
000002f0: e3bd 333c c49c 5cbb 58c8 bdb9 e3bb 2b3c
00000300: 6f64 04ba f307 b3bb 642f 59bc 54ae 32bc
00000310: f97b 4e3b 5a97 613c 7fb0 b93b 886b 27bc
00000320: 4e92 28bc eacc 5f3b b2e1 96bb 54cd 43b9
00000330: c10b 8ebc ff60 dfbc a4d5 03ba 4c88 9abb
00000340: 9753 99bb 2ca1 c83b 6308 7939 29bf 9abb
00000350: b173 a93b 4e29 7f3b 35ed b4ba baaf bebb
00000360: 5480 c2bb 48ef 7abc 4b1b ec3b c6f8 0dbb
00000370: 18de 18bc aa87 27bc 852d 2bbc ec23 78ba
00000380: b536 0abc b9de 00bc 799f b23b 8a09 c0bb
00000390: 015e 583c 862f 803b e51b 9ebc ebec 72bc
000003a0: e4dd 523b 3d50 8c3b fd50 883b e168 3c3a
000003b0: 6647 c2bb 96d9 91bb 1a8d 92ba 3270 d7ba
000003c0: 2503 263b b37d e0ba 3190 4e3c 87b4 263c
000003d0: 67ec f9bb bb38 37bc 872d 513c ec86 82bc
000003e0: 702a f93a e0a1 193c 1bf5 82bc 8cc1 64bc
000003f0: ad99 c03b ba7d f0ba 6777 1dbb a64b 00bc
0.08472486 -0.014284894 4.7217804e-05 -0.03111011 -0.057832908 -0.078692034 -0.008997454 0.010623129
-0.11529508 -0.0880445 -0.091737054 -0.06775874 0.06800261 0.079781726 0.05618666 0.047250487
0.065891735 0.04050016 -0.030160338 0.035339892 0.09384087 0.06642843 0.049168862 0.10587187
0.05809644 0.09756069 0.007959988 -0.05038858 -0.0046499316 -0.031183759 -0.0508133 -0.075676315
-0.049114123 -0.08640925 0.012535998 -0.06366735 -0.023156635 -0.16985461 -0.036192417 -0.05038033
0.06436171 -0.06257216 0.06775483 0.16086276 0.12699142 -0.06981796 0.069848254 0.031809013
0.1593294 -0.009532933 -0.05248651 0.013904284 0.034878638 -0.06027714 -0.0015456191 0.029588617
0.08178491 0.12610476 0.12101133 0.09462916 0.08443911 0.03174914 0.12517355 -0.19707897
-0.03175321 -0.022110457 0.0018229401 -0.22043265 -0.011626812 -0.16313781 -0.045116402 -0.29077423
-0.035173032 -0.012127555 0.052218247 -0.062209997 -0.037403435 0.042705595 -0.03398164 0.053895168
-0.09439744 0.10966054 0.046594992 -0.07709223 0.0072952085 -0.11017143 -0.086565375 -0.093969904
-0.065091416 0.12952916 0.06512187 0.08513251 -0.0508779 -0.046747196 -0.047779508 -0.00021639746
-0.03474095 -0.15469347 0.058242135 0.04723549 0.12861983 0.0001389722 0.039213732 0.07554578
0.04595804 -0.048004676 -0.12736258 0.013394417 -0.12934043 0.086431265 -0.011993038 0.041370142
-0.06907255 -0.03797013 -0.0062265364 -0.08535637 -0.107607916 -0.13581288 -0.18194538 -0.13880077
-0.08761468 -0.078077465 -0.05145634 -0.11576634 0.15977417 -0.06123286 -0.20226647 -0.15486582
-0.17918634 -0.15689148 -0.10884538 -0.11868849 -0.099791594 -0.030288626 -0.09042249 0.035728313
-0.0034187187 0.032519255 -0.04665018 -0.08380693 -0.04305243 -0.01158819 0.09681119 0.004795126
-0.017197661 -0.0021595333 0.002699727 -0.004962803 -0.013108084 -0.015256941 0.0043369615 0.017553296
0.0035885917 0.004581634 -0.0080190115 -0.022257708 0.015753124 -0.014190593 0.009275264 0.010105542
-0.0060810754 -0.013541229 -0.0033132476 0.003209307 0.011094159 0.010387007 0.011015091 0.005504515
0.0046362225 0.012222893 -0.006070906 0.015001197 1.4702856e-05 -0.015204048 0.007975608 0.015565111
-0.0051827948 -0.014885505 0.0021986733 -0.0086012585 0.0056125782 0.011838982 -0.021391954 -0.027372388
-4.6107998e-05 -0.005656757 -0.008199525 0.010915161 0.0109705655 -0.0033662776 -0.00036198157 0.010481807
-0.0005050366 -0.005463594 -0.013255928 -0.010905821 0.0031507 0.013768995 0.005666792 -0.010218509
-0.010288788 0.0034149238 -0.0046045417 -0.0001867314 -0.01733959 -0.027267931 -0.00050290884 -0.004715955
-0.004679154 0.006122729 0.00023749615 -0.004722495 0.005171262 0.0038934532 -0.0013803603 -0.005819288
-0.005935708 -0.015315838 0.007205402 -0.0021663173 -0.009330295 -0.010225216 -0.010447864 -0.0009465802
-0.008435895 -0.007865601 0.0054511395 -0.005860512 0.013206006 0.0039119152 -0.01930041 -0.014826993
0.0032175714 0.004282026 0.004160045 0.0007187259 -0.0059289215 -0.004450987 -0.0011180968 -0.0016436635
0.0025331464 -0.0017127305 0.01260762 0.010174877 -0.0076270583 -0.011182959 0.012767202 -0.015933476
0.001900984 0.009376973 -0.015986016 -0.013962161 0.0058776946 -0.0018348016 -0.0024027468 -0.007830536

module.nets.0.H_back.conv1.bias f4 [16]
00000000: f40d 1b3d 337a 3abc 159e ccbb 871c debb
00000010: c3be ac3c 44dc bbbc 578c 18bc 9d84 253d
00000020: 8164 9e3c fcee d73c eac5 a2bb 0e44 b4bb
00000030: c730 593c f477 023d 4630 f0bb 7ff8 173d
0.037855104 -0.011381674 -0.006244431 -0.006778303 0.021087056 -0.02293218 -0.009310803 0.040409673
0.019335033 0.026359074 -0.004967441 -0.005501277 0.013256258 0.031852677 -0.0073299734 0.03710222

module.nets.0.H_back.conv2.weight f4 [16, 16, 3, 3]
00000000: 7190 4abc 3e59 923d 5579 d33d 0593 07be
00000010: 77d8 1dbe b54f 03be 1c74 3fbb 4273 96bd
00000020: fc23 353d b3bf 4b3b b859 453b 22e4 203c
00000030: 22a8 393b ffa9 823c 6566 4f3c 550e fdbb
00000040: 5b89 633c 474c e33b ed46 853b d7e0 b2bb
00000050: ac51 9ebb 5d41 913a 893a 903c cb05 33bc
00000060: acb5 4b3c 567a a83c d1a2 6abc 685a 593c
00000070: c2dd c5bb acad 72ba 32fc 86bb 8a9f 353c
00000080: c1d2 f7b9 f7f0 1cbc c001 0b3a 662a 0cbc
00000090: b244 b23d 01c1 16bd d120 4abe 6e12 04bd
000000a0: 4cc8 c2bd c2cd dfbd 5abe e1bd 6c7c 99bd
000000b0: cc3d acbc 2d6b 9dbc f86c 4e3c fae5 4abd
000000c0: 7dff 29bd 6f59 d13c 95c8 9bbd a316 cabc
000000d0: e8c7 21be 038c 1bbe fcdb 193c cacc 0cbc
000000e0: c105 463c 021d a9bb a2a3 943b df42 03bb
000000f0: a9d6 443c 3c1d 54bb ced4 e6bb 6253 d63d
00000100: 3c3b c03d 04cf a33d 8571 b3bd af54 f1bd
00000110: 221d f2bd a51a 0dbd 15ac 25bd d21b 56bc
00000120: bb9b 22bd 7935 d83d ff27 0bbc f26a 1bbe
00000130: 1b47 0fbe 4b11 babd b3c8 60bc 9683 79bd
00000140: c011 d4bd ce4c c13d 1efa d23d cc30 0b3e
00000150: f03b 5b3d 0f8b 423c 1a7b e93d 9059 a33d
00000160: 67d6 aa3d 57a6 c23d 2667 1cbc 6cfa 5dbc
00000170: 4bfb 5f3b f49f d73b b02a 82bb fe8e a1ba
00000180: 4393 8b39 de70 38bc 139f bc39 fb5d 3e3c
00000190: 5524 05bc ffc3 553c 2005 74bc 69ac 9d3c
000001a0: 1bab 0eba 0125 423c 890a debb 914b d6b7
000001b0: 6e86 c0bd 1ba0 c2bd de3c 13be f186 703e
000001c0: cdec 133e d20c 8bbd 386f 353d 8d00 90bc
000001d0: 8245 4e3c 9a2b 9c3c add0 9fbd 8838 1b3d
000001e0: 3faf f0bd 38c6 15be bf0f 86bd 100c 44bd
000001f0: 6f12 3cbd 5264 bcbc 8269 15bc d1ef 27bb
00000200: fdcd 2ebc 3642 15bc 01c5 293c 433a 44bb
00000210: f54b 49bc e7a6 82bc 3351 853c 0f2f 37bd
00000220: d841 75bc cb34 e0bc 1bf9 c5bd 5c89 dcbd
00000230: fad1 7dbd c4d8 1d3c 94e9 16bd e0d8 4bbd
00000240: 6cf5 47bd ea7c 7cbe 9692 403c 156e 613c
00000250: 9739 e03d 41c6 dd3d 148c d7bc f323 2b3e
00000260: 416b 843d 3fba 2c38 a22a 983b 2c47 193b
00000270: 0a47 0dbc 00fe e73b 6a71 ac3a a64c 12ba
00000280: 9d6b b4bb 8619 163c a3bc 1c3c ebf5 bf3b
00000290: 7608 2b3c 1827 08bc 4e09 86bc 99c0 84bc
000002a0: 36fd 8aba 402e 1b3a 991a 9cbc 27a6 213c
000002b0: 8767 023c f18f 153c e83d 883c bd2f b7bb
000002c0: f993 a93b b701 00bc b24d fabb dafb 68bc
000002d0: ea02 663c 99ba 22bc 98fd 443e 2555 2d3a
000002e0: ed9a 2f3e ecaf 4b3e aedc 233d 167c aa3d
000002f0: 35fe 3c3d a238 be3d ad97 f3bc ae30 34bd
00000300: 5faf 77bd 54e3 bebc 15d4 4b3d 6b95 dd3d
00000310: 9ff9 133e 9df1 0c3d 2d88 5cbc 7211 2abc
00000320: 52df d8bb aca5 6bbb 740c cfbc 7682 72bc
00000330: 6ed0 51bb dd89 013c c7d5 2abc 6b60 debd
00000340: 4548 8abe a89c f6bd 46cd 2a3e 69f6 3b3e
00000350: 76ca 193e 3bf7 0f3d 01e3 893d 476b 6cbc
00000360: 1e62 c3bd 507a 39be 006f cabd 8272 2f3e
00000370: d20e c73d 4f1b b33d d7f4 2d3e a856 f93d
00000380: 4a03 f83d 76e2 94bc b1dd 3f3d 584f 7dbd
00000390: 2480 8dbd 0737 ecbd efef ebbb 1869 5dbd
000003a0: c82d 47bd 3e15 6dbd e3d4 c33b 25a8 523a
000003b0: fd00 0abb 0027 baba 0087 60bc 5647 f33b
000003c0: eb11 003c 76ba d7bb f31a 90b9 6e27 20bc
000003d0: 0067 de39 b3d8 ca3b 0295 bbbb 2113 f33b
000003e0: 78d9 4abc 92fa 193c 1bd8 cbba 5a99 d0bb
000003f0: b06d 163e 1959 163e 2d5f 173e 854e 93be
-0.012363539 0.07145928 0.103258766 -0.13239677 -0.15414606 -0.12823375 -0.0029213494 -0.073462024
0.04422377 0.0031089603 0.003011329 0.009820016 0.0028328975 0.015950201 0.01265869 -0.007722656
0.013887729 0.006936583 0.004067293 -0.005458932 -0.0048315134 0.0011082102 0.017606037 -0.010926674
0.012433451 0.020566147 -0.014321045 0.013266183 -0.0060383985 -0.00092574465 -0.0041194195 0.0110854
-0.00047268535 -0.009578935 0.000530269 -0.00855503 0.08704509 -0.036805157 -0.19739081 -0.03224414
-0.0951086 -0.10927917 -0.11022635 -0.07494435 -0.02102556 -0.019216144 0.012599222 -0.04953573
-0.04150342 0.02555534 -0.07606617 -0.024668997 -0.15798914 -0.15190129 0.009390827 -0.008593747
0.012086333 -0.0051609287 0.004536108 -0.0020028872 0.01201407 -0.0032366058 -0.0070444113 0.10465123
0.09386298 0.079984695 -0.087618865 -0.1178373 -0.11821963 -0.03444924 -0.040447313 -0.013068156
-0.039699297 0.10557074 -0.0084934225 -0.15177515 -0.13991968 -0.090853296 -0.013719725 -0.060916506
-0.10354948 0.094384775 0.10301612 0.13592833 0.053523958 0.011873974 0.11400433 0.07976067
0.08341675 0.09504383 -0.009546077 -0.013548475 0.0034176882 0.006580347 -0.003972374 -0.001232594
0.00026621865 -0.011257378 0.00035976674 0.011619086 -0.008126338 0.013047217 -0.0148938 0.01924725
-0.0005442367 0.011849643 -0.006776158 -2.5545976e-05 -0.094006404 -0.09503194 -0.14378688 0.23488976
0.14445801 -0.06789555 0.04429552 -0.017578388 0.012589814 0.01906376 -0.078034736 0.03789571
-0.117521755 -0.14626396 -0.06545972 -0.047863066 -0.045916017 -0.022997055 -0.009119393 -0.002562512
-0.010669229 -0.009110024 0.010361911 -0.0029941953 -0.012286176 -0.015948726 0.01627407 -0.044722613
-0.014969312 -0.027368924 -0.09666654 -0.10768387 -0.061967827 0.0096342005 -0.03684385 -0.049767375
-0.048818037 -0.24657026 0.011753699 0.013759156 0.109484844 0.108288296 -0.026311912 0.16712932
0.064657696 4.118145e-05 0.004643754 0.002338837 -0.008622894 0.0070798397 0.0013156359 -0.00055808795
-0.0055059926 0.009161359 0.009566459 0.005858173 0.010439029 -0.008310102 -0.016361859 -0.016205119
-0.0010604027 0.00059196725 -0.019055652 0.009866274 0.007959253 0.009128557 0.016631082 -0.0055904076
0.0051751104 -0.007812909 -0.0076386565 -0.014220202 0.014038781 -0.009932184 0.19237363 0.0006612114
0.17148943 0.19891328 0.04000538 0.08324449 0.04614087 0.092881456 -0.02973541 -0.043991737
-0.06046998 -0.023301758 0.049762804 0.10819515 0.14450692 0.034410108 -0.013460201 -0.010380136
-0.0066184187 -0.0035956902 -0.025274493 -0.014801612 -0.0032015103 0.007906404 -0.010426945 -0.10858234
-0.27008262 -0.120415986 0.16679868 0.18355717 0.15018639 0.035147887 0.06732751 -0.014429874
-0.09540199 -0.18113065 -0.09884453 0.17133525 0.097196236 0.08745443 0.1698793 0.121747315
0.12110002 -0.018174391 0.04684228 -0.061843246 -0.069092065 -0.11533933 -0.007200233 -0.054055303
-0.048627645 -0.057881586 0.005976306 0.000803592 -0.0021057718 -0.0014202297 -0.0137040615 0.0074242754
0.007816772 -0.006583507 -0.000274859 -0.009775026 0.0004241988 0.0061903833 -0.00572455 0.007418052
-0.01238095 0.0093981195 -0.0015552075 -0.006365937 0.1469028 0.14682426 0.147824 -0.28770843

module.nets.0.H_back.conv2.bias f4 [16]
00000000: ae0f aab9 47dd 4fbb 2d88 71bc 7da3 1e3c
00000010: 9c33 873b 5b03 30bb 2c61 0fbc e5f2 c13c
00000020: 6cae 423c 1f31 9e3c 0ffe 2dbc 6160 a13b
00000030: da24 ed3a 2906 87bb 2612 3fbc cf86 a13c
-0.0003243661 -0.0031717585 -0.0147419395 0.009682533 0.0041260254 -0.0026857469 -0.008751195 0.023675391
0.011882406 0.019310532 -0.010619654 0.0049248193 0.0018092648 -0.0041206074 -0.011662042 0.019717602

module.nets.0.conv_G.weight f4 [2, 16, 3, 3]
00000000: 05de a83c 0d60 033e 3b09 063e 9bab 1f3e
00000010: 9e9d 453e e707 1f3e 06b5 bfbc b7b8 033e
00000020: 43a7 be3d 8d7f 1fbd 9978 81be 3544 28be
00000030: cc7b 6abd 5f9e 53be ce13 20be b2bc c0bd
00000040: 655f 863d 9001 663d 0e20 4ebe be7e 7c3e
00000050: 3788 d7bd e934 23be 64c0 76be 9871 e3bd
00000060: 5532 9cbd d34e ccbd 2013 1cbe b857 983d
00000070: bd11 70bd 35df 043e 4289 ef3d d686 533e
00000080: e79f 4c3e d272 b03d ed85 323e 01da b83d
00000090: 24c2 223e b341 113e d818 0cbe 6e13 fe3d
000000a0: 6642 843e 4728 8d3d 1b8d f8bc 6a63 0d3e
000000b0: f462 473d 9ec3 6bbe c5c8 31be 6771 33bd
000000c0: 3a98 fabd 248d 74be 74c2 e4bb a2f6 a8bd
000000d0: 470b 3bbd d2f7 12be 518c 8d3c 547c 8e3e
000000e0: aa46 9ebe 00a2 693c a2ce 4fbe ee6c 21be
000000f0: 0adc b1bd a11e 27be a0e4 c3bd de88 f7bb
00000100: a829 89be 919a 633e 5b89 d23d 0292 8e3e
00000110: 0114 433e 3b60 3b3e 0ad7 083e 0ce9 0c3e
00000120: e4d7 bfbd fcf7 703d c46e cc3d cf32 833d
00000130: f67e 483e 2c67 393e c75a 3f3e 8c60 013e
00000140: 6c09 1abd 74c5 2b3d a39e a93d 4d4b 933d
00000150: 08c0 e83d f905 5c3e aa91 ec3d 522e f23d
00000160: 2a29 a33e c4ad 323e dd63 3ebd 7670 9fbd
00000170: 1540 e4bc 7823 e1bd 2c67 9dbe c640 3ebe
00000180: a171 88bd 0463 f7bd 79fe 2cbd 0f70 94bb
00000190: 6a13 6bbe f1ed ab3e d659 903d 7841 643e
000001a0: 465e 2d3e 2437 5b3d 0349 2d3e 6c11 e23d
000001b0: 0e0a 693d e594 db3c 21ba 08be 0e4e 873d
000001c0: 25a1 a73e 65c3 943d 92ee 003d 476e 593c
000001d0: 5f5d ea3d 4fed 453e 5ded 45be 8344 593e
000001e0: 4c00 10bc b7e1 953e 2cee 6b3d 1a1a e7bc
000001f0: 5867 b2bd c890 e3bd d899 11be 6fa7 8abc
00000200: 2138 783d c56f 0abe f79b 7abe d65a ecbd
00000210: 286d b1bd 5ec4 6ebe e228 ebbd 99fe 123e
00000220: 5380 013d c71f eb39 8d1d 063e 5d08 583e
00000230: 6c58 63bb fc3b a43d 97cc 453e b4b7 253e
00000240: 2b79 cdbd 5b12 34bd ba25 56bb 9275 a0bd
00000250: c155 6abc 0448 8ebb 4a19 ae3c f6e4 95bd
00000260: 13b0 e6bc fa43 8fbc 9515 8ebd ddd0 c93b
00000270: e3cb 8b3d 55f9 8b3d a504 763d 697f e2bc
00000280: c1ad 433d 6482 b3bc b9bb 473e 6022 813d
00000290: d807 69bd fb7b e43c f36b 313d 7506 803d
000002a0: 1438 b03d 44ec 553d d1cd 9a3d 5921 92bd
000002b0: 818f 10bd e02c 06be ee8f dcbc a00a cd3b
000002c0: e61c 443d e4c8 3d3d e768 f73c c487 373d
000002d0: a16f 003c cacc e13c 5c37 853d c2b4 293d
000002e0: a759 163d 4492 f63c e029 a0bc bf21 1abd
000002f0: db12 81bd f36c 5dbd 3165 e1bd 9b99 0abe
00000300: 24f4 e0bc a8a3 1fbd 0a40 cbbb 7392 293c
00000310: 9eaa 38bc 0028 6dbd 7e46 f93a a68e 413c
00000320: 91cb a53d 5365 14bc ce26 c13c 6411 86bd
00000330: 1670 84bd 3430 89bd 2abb 3e3d 98f5 883d
00000340: 4642 e13d 61a7 e83d d290 1ebd 86a2 73bd
00000350: 8451 613d 7bf5 833c 653e 303c ffe8 86bc
00000360: eab1 a9bd 931c 2abd 6c2d abbc ff43 7e3c
00000370: 2c4b 4abb 495f 47bd a0f2 b3bd 824d 68bd
00000380: 5530 9fbc feb8 f5bb 72b4 2c3c 5935 6bbd
00000390: 6329 b2bc 607e 4b3d e8d0 c93c 11dc 7d3d
000003a0: 44eb 4c3d e6f7 1a3c 7fe5 a1bd 34d1 82bc
000003b0: c8ac 023d 74aa d6ba 14db 88bd d0e2 9ebd
000003c0: 7f54 15bd 5302 f6bb cd70 86bd de7d fa3d
000003d0: 7e5e 883d 38f4 1bbc 2595 babb d732 9f3a
000003e0: 03a5 d53b d212 babd 9fd7 92bd 625f 66bc
000003f0: 39c2 56bd af08 4dbd c9b6 aabd da02 81bd
0.02061368 0.12829609 0.13089459 0.15592806 0.19298407 0.15530358 -0.023401748 0.12863432
0.093092464 -0.03894 -0.2528732 -0.16432269 -0.05724697 -0.20665883 -0.15632555 -0.09410991
0.06561164 0.056153834 -0.20129415 0.24657723 -0.10524028 -0.15938152 -0.24096829 -0.11105651
-0.076267876 -0.09975972 -0.1524167 0.07438606 -0.058610667 0.12975772 0.11696102 0.20656905
0.19982873 0.0861565 0.17433901 0.09025956 0.15894371 0.14185219 -0.13681352 0.1240605
0.25831908 0.06892448 -0.030340722 0.13807455 0.048678353 -0.23023841 -0.17361744 -0.04380932
-0.12236066 -0.23881966 -0.0069811884 -0.082501665 -0.04566505 -0.14352348 0.017278822 0.2782923
-0.30913287 0.014259815 -0.20293668 -0.1576421 -0.08684547 -0.16320278 -0.09565091 -0.0075541576
-0.26789594 0.22226931 0.10280105 0.2784577 0.190506 0.18298428 0.13363281 0.13760775
-0.0936735 0.058830246 0.09982064 0.06406175 0.19579682 0.18105763 0.18686973 0.12634486
-0.03760664 0.041936353 0.08282211 0.07192097 0.11364752 0.21486653 0.11551221 0.11825241
0.31867343 0.17449099 -0.046481956 -0.07785122 -0.027862588 -0.10993093 -0.30742776 -0.18579397
-0.06662298 -0.120794326 -0.04223487 -0.00452996 -0.22956625 0.33579972 0.07048385 0.222906
0.16930494 0.053519383 0.16922383 0.11038479 0.056894355 0.026804397 -0.13352253 0.066066846
0.3274013 0.07263831 0.03147752 0.013270921 0.114435904 0.19328807 -0.19328828 0.21217541
-0.008789133 0.2927377 0.057600185 -0.028210688 -0.087111175 -0.11111599 -0.14218843 -0.016925542
0.060600404 -0.13519199 -0.24473558 -0.11540763 -0.08663398 -0.23317096 -0.11482407 0.14354934
0.03161652 0.0004484637 0.1309721 0.2109694 -0.0034690155 0.080192536 0.19316326 0.16183358
-0.100328766 -0.043962818 -0.0032676295 -0.07834925 -0.014302672 -0.004342081 0.021252293 -0.073190615
-0.02816013 -0.017488468 -0.0693771 0.0061589316 0.06825998 0.06834666 0.060063023 -0.027648645
0.047773127 -0.021912761 0.19505204 0.06305385 -0.056892246 0.02789115 0.04331584 0.062512316
0.08604446 0.052227274 0.075587876 -0.07135267 -0.035293106 -0.13103056 -0.0269241 0.00625737
0.047879122 0.046334162 0.030201389 0.04480721 0.007839114 0.027563471 0.065046996 0.04143215
0.036706593 0.030099042 -0.019551218 -0.03762984 -0.063024245 -0.05405898 -0.11005629 -0.13535158
-0.027460165 -0.038974434 -0.0062027024 0.010349858 -0.011271147 -0.057899475 0.0019018201 0.011813795
0.08095468 -0.009057361 0.023578074 -0.06546286 -0.06466691 -0.06698647 0.046565212 0.06687468
0.10998969 0.1136005 -0.03871233 -0.059481166 0.05500938 0.016108265 0.0107570635 -0.016468523
-0.082858875 -0.041531157 -0.020895682 0.015519141 -0.003086756 -0.048674855 -0.087865114 -0.056714542
-0.019432226 -0.0074988594 0.010541068 -0.057423923 -0.02174825 0.049681067 0.024635747 0.06197745
0.050029054 0.009458518 -0.07905101 -0.015968896 0.03190306 -0.0016377703 -0.06682411 -0.07758105
-0.036457535 -0.0075076013 -0.06564484 0.122310385 0.06658648 -0.0095186755 -0.005694049 0.0012145889
0.006519915 -0.09085621 -0.07170033 -0.014060827 -0.05243132 -0.05005711 -0.08335645 -0.06299372

module.nets.0.conv_G.bias f4 [2]
00000000: c1ca 80bb aa46 04bb
-0.00393042 -0.002018372

module.nets.1.conv_D.weight f4 [16, 2, 3, 3]
00000000: f3cc b63d 7c11 303e 45d0 23be a33d 57be
00000010: d2e8 91bd fcb2 563d 884e 083e a1fc 803c
00000020: a7c7 22bc 64d7 b7bc aaaf d53b 256c 733b
00000030: 9ea5 17ba f297 03bb fe9c f33b c1af f1bb
00000040: b8b6 75bc 594f 003c aa84 b53c 539c 903c
00000050: 1102 d2bd b1af 383d 8507 ba3d 4401 28bd
00000060: 8ea7 af3c 7a9c 5abd 8b3e 0dbd f7fe 0cbc
00000070: a07e 063c 59b2 f83b 7269 5a3c f740 933b
00000080: a7a2 50bb 34ef 7bbc c938 ebbb fd08 ec3b
00000090: 7d49 f739 7e55 0b3d a8c0 183d 3204 283c
000000a0: b768 023d 24e0 2b3d b60c 9ebd edb8 84bd
000000b0: 773d fdbc c213 323c 179b e0bb fb40 ccba
000000c0: d959 623b 066c 95bc bda8 543c db25 55ba
000000d0: 4f50 8437 34d0 77ba 2737 3fbd 877b ad3d
000000e0: f377 783b 7aa9 043d 034b c2bb 207c 33bd
000000f0: 3595 89bb a023 4abd f180 0d3d 1ddc 06bb
00000100: a74d 943b 38be dd39 5369 3ebc d737 c2bc
00000110: ae89 42bc 6484 57bc 473f a83a 3b1d 7d3b
00000120: f2cf c83b a110 603d 0ab5 383d 9792 08bd
00000130: f5ea a8bc a1ac 5bbc 3e08 54bd aad6 d1bc
00000140: b67c 423b 2dc7 a23b 807e c2bc 2f08 aebc
00000150: 8426 983b d7fa 183b 4ffe 91bc 78f2 16bb
00000160: 8b5f 46bc 8986 30bc 41f0 9f3d 6151 453d
00000170: f711 263d 8069 8abc 7b48 3abe 6b00 1dbd
00000180: cb99 393d 96d0 f23d b3e1 abbd 598f 16ba
00000190: 1b33 273c 4ef4 483b 592b 7bbb a717 31bb
000001a0: d53f 78ba 7ddf 443c 6fc5 543c 80c0 c03b
000001b0: e383 28bd 5705 523d 32bf b13c 8eb9 98ba
000001c0: ba88 6abe 6053 073e 00f5 2e3d 26df c03d
000001d0: 8ca8 a4bd 58cc 813c 49d0 363c 43be 01bc
000001e0: e903 f5bb 14c2 0c3c 82e5 d83a 6038 2e3c
000001f0: 6061 5d3b 818b 353b 5c5f 41bc 43e0 5c3c
00000200: 6c67 b43d f3bd f53d 2cae 1fbe 55b4 67bd
00000210: 2c32 16bd 7acf b93d 4146 2bbd 1fe4 023c
00000220: bfeb 8dbc 621e 8fbc 3d20 5bbb a773 093a
00000230: dc5a 903a 6d0a 98b9 bb8e 36bc 36da 2c3c
00000240: 25c1 963d e943 acbd c511 23bc 9e82 60bc
00000250: bef8 91bc 3204 893d f29c 0ebd c25f 673d
00000260: a4b9 39bd 14cc 3abc 8928 dcbb 25d7 6c3c
00000270: f5a3 713c f54d 5dbc da56 0639 21e7 34bc
00000280: e085 6b3b 4252 97bb 0334 96bc de84 5b3d
00000290: c080 19bd 83bc d7bc a698 d0bc b7e3 753c
000002a0: a29c f1bc 8055 90bc 3b3c 6a3d e774 b4bb
000002b0: 1319 9e3c 481f 09bb e720 dd3a d82a d2ba
000002c0: a46f af3b e456 933c 302f dfbc 99cc 90bb
000002d0: aedf ddbc 6480 543c b764 ab3b b9e4 2a3c
000002e0: df24 183d 00a2 4f39 a796 0ebd 9d10 26bd
000002f0: 2f2c d43b 593d 5a3c 72e3 97bb 6dcf c7ba
00000300: c2e7 f6bb 9edd aabb a5ba f9ba 18b4 62bc
00000310: 9d7f b4ba 8a41 e9bb c6a7 a2bc c4aa 3cbd
00000320: 44a1 21bd ffb1 3abc c161 a7bc b3d5 3fbd
00000330: 6f3b 6e3d 21e4 673d ff4a 0f3d e013 0bbb
00000340: 6223 70bb c65b 9e3b 67cc f63c 1294 873b
00000350: 0e1d 3cbc 2654 053c f5ad 4e3b 6e13 e6bb
00000360: 2a3d 51bb cdf5 023d a330 253d ea01 25bc
00000370: 8683 853c 723e 393c 2694 92bd edcd 51bd
00000380: 5b0a aabb 1ee6 db3b bec5 523c 3d59 11bb
00000390: 6b86 04bc f991 de3b 1ff1 1f3c 80c9 183c
000003a0: cdd6 04bb 9a67 0abb e861 edbc 4490 143d
000003b0: 2002 b8bb 25fc ce3b ff54 2c3b 3f3a 3bb9
000003c0: 0010 31bd d216 36bd 6da9 ff3c 5cf6 a63b
000003d0: bd75 8abb 3cb0 073c 090a 583b ced2 243c
000003e0: a13c b6bb 96b2 9ebb ebae 85bb f5ab 56bb
000003f0: 0e30 3cbb a3ea 1abd 6645 e7bc 5ad8 02bb
0.0892581 0.1719417 -0.15997417 -0.21019606 -0.07124485 0.052416787 0.13311207 0.015745463
-0.009935296 -0.022441573 0.006521185 0.0037143317 -0.0005784872 -0.002007958 0.0074344864 -0.007375688
-0.014997177 0.007831418 0.022157986 0.017652666 -0.102543004 0.045089427 0.090834655 -0.041016832
0.021442201 -0.053371884 -0.034483474 -0.00860571 0.008208901 0.00758962 0.013330804 0.0044938284
-0.003183523 -0.015376855 -0.0071784 0.00720322 0.00047166264 0.03401708 0.037293106 0.0102549065
0.031838145 0.041961804 -0.07717268 -0.06480584 -0.030913098 0.010868968 -0.0068544257 -0.001558333
0.0034538417 -0.018239986 0.0129796835 -0.0008130946 1.5773023e-05 -0.0009453327 -0.046683457 0.084708266
0.0037913292 0.032388188 -0.0059293522 -0.043819547 -0.004198695 -0.04935038 0.034546796 -0.0020577975
0.0045258584 0.0004229413 -0.011621791 -0.023708267 -0.011873646 -0.013154123 0.0012836241 0.003862216
0.0061283046 0.05470336 0.045094527 -0.033342924 -0.020619849 -0.013407857 -0.051765673 -0.025615055
0.0029676384 0.0049675913 -0.02374196 -0.021244137 0.0046432633 0.0023342872 -0.01782146 -0.0023032706
-0.01210774 -0.010774263 0.07809497 0.048173312 0.040544476 -0.01689601 -0.18191712 -0.038330477
0.045312684 0.11856191 -0.08392658 -0.00057434064 0.010205056 0.0030663195 -0.0038325398 -0.0027022155
-0.0009469961 0.012016174 0.012986525 0.005882323 -0.041141402 0.051274624 0.021697614 -0.0011651979
-0.2290372 0.13215399 0.04271412 0.09417562 -0.0803996 0.015844509 0.0111580575 -0.007918897
-0.007477273 0.008591194 0.0016547891 0.010633558 0.0033779964 0.002770156 -0.011802521 0.013481203
0.08808789 0.119991206 -0.15593785 -0.056568462 -0.03666894 0.09072776 -0.041815046 0.007988959
-0.017324327 -0.017470542 -0.0033435964 0.0005243369 0.0011013406 -0.00028999467 -0.011142428 0.010550072
0.07361058 -0.0841139 -0.009952967 -0.013703017 -0.017818805 0.06690253 -0.034817643 0.056487806
-0.045343056 -0.011401195 -0.0067186994 0.014455591 0.014748563 -0.013507356 0.0001281159 -0.011041434
0.003593795 -0.00461796 -0.018335348 0.05359351 -0.0374763 -0.026335007 -0.025463413 0.015007905
-0.029493634 -0.017618895 0.057186347 -0.0055071 0.019299066 -0.0020923186 0.0016870768 -0.0016034497
0.005353885 0.017985769 -0.02724418 -0.004418921 -0.027084198 0.012970064 0.005230512 0.010430508
0.037144538 0.00019801408 -0.034811642 -0.040543187 0.0064749937 0.0133202905 -0.004635268 -0.0015244313
-0.007534952 -0.005214407 -0.0019052817 -0.013836883 -0.0013770942 -0.0071184086 -0.019855391 -0.046061292
-0.039460436 -0.011394977 -0.020432355 -0.04683466 0.05816215 0.056614045 0.03498363 -0.0021221563
-0.0036642184 0.0048327176 0.030126764 0.0041375244 -0.011481537 0.008137738 0.0031536792 -0.007021359
-0.0031927326 0.031972695 0.040329587 -0.010071257 0.016298067 0.011306392 -0.07157163 -0.051221777
-0.0051892227 0.0067107817 0.012864528 -0.0022178434 -0.008088688 0.0067923036 0.009762078 0.009325385
-0.0020269633 -0.002111888 -0.02897735 0.036270395 -0.0056154877 0.006316679 0.0026295779 -0.00017855408
-0.04322815 -0.044455357 0.031208718 0.0050952863 -0.0042254613 0.008281764 0.0032964966 0.010060025
-0.0055614267 -0.0048430664 -0.0040796897 -0.0032756303 -0.0028715166 -0.037821423 -0.028231334 -0.0019965381

module.nets.1.conv_D.bias f4 [16]
00000000: 59b7 abbb 8a86 e83b 9c9d 6c3a 9cb1 b7bb
00000010: eb1f 7e3b 123e e5ba 224f dd3a aab6 91b9
00000020: a8ef 933b 926d d13b a352 f23b aa72 143c
00000030: 25b5 8b3b 8324 df3b bdaf a33b 34f9 20bb
-0.0052403626 0.0070961164 0.0009026171 -0.0056058895 0.0038776349 -0.0017489812 0.0016884545 -0.0002779265
0.0045146532 0.0063912356 0.007395105 0.009060541 0.0042635375 0.0068097725 0.004995315 -0.00245626
